models/rl_agent_robustness.pth (torch, 55941 bytes, 9 tensors)

fc1.weight f4 [64, 5]
-0.28894743 -0.13603784 0.11907838 -0.026704315 0.09530648 -0.32272226 0.004080653 0.020082355
-0.021725178 0.22032213 -0.3583082 0.12574545 0.47470155 -0.15474921 -0.16602932 0.10332144
-0.01765684 -0.41460416 0.06646106 -0.08341995 0.36375058 -0.2979656 0.3473894 0.16952601
-0.30759412 -0.082165 -0.32540902 -0.065235406 0.06085664 -0.42911655 0.011355352 0.36181852
0.38496473 0.30401132 0.2456199 -0.11882129 -0.21538198 -0.14051634 0.34041607 -0.25873345
-0.26939765 -0.26671383 -0.019935053 0.37784174 0.171772 -0.09710923 0.34869725 -0.030163258
0.07956213 -0.089568615 0.20244871 0.1162902 -0.21183549 0.2817967 -0.20095786 0.4095284
-0.41698048 -0.065264 -0.16300662 0.040125992 -0.304402 -0.0047503742 0.4828062 -0.1839786
0.17944759 0.051247865 -0.23720846 -0.24116547 -0.28167957 0.0907923 -0.16233157 -0.28420946
-0.44081414 -0.2720064 0.20847644 -0.35802445 0.09305666 0.362956 -0.2370951 -0.048465453
0.10337658 -0.19786076 -0.37076125 -0.2912352 0.22311883 -0.11659628 -0.11720926 -0.38024753
-0.25659302 0.19161443 0.23866384 -0.040627465 -0.42631087 0.25328338 -0.3962739 -0.30684927
-0.017999874 -0.22978574 -0.06328914 0.117380686 0.13493645 0.3106675 -0.29556802 0.43043593
-0.38347796 0.20893699 0.23074919 -0.20100538 -0.19481987 -0.3199214 0.36089212 -0.02226567
0.1932882 0.2410638 -0.36879784 0.30110383 -0.13092747 -0.14360261 0.3521169 -0.18284273
-0.25602746 0.4026324 0.13856812 0.38586903 -0.23721164 0.21416894 0.4035302 -0.042507462
0.09076728 -0.27842712 -0.14127702 -0.36310747 0.3632942 0.29365206 -0.08062802 0.2759866
0.08729515 -0.13638437 0.17409815 0.30309424 -0.3377386 -0.31290376 -0.058015194 0.38910356
-0.12355603 -0.19047034 -0.10285902 -0.052928925 0.18382424 -0.29826403 0.041936778 -0.10568949
0.26601496 -0.22893825 -0.124936126 0.11186081 0.1952236 0.41776803 -0.3090992 -0.27558818
0.24118848 -0.41561174 0.44942856 0.06623467 -0.25733152 0.19608593 -0.39908624 -0.18714318
0.079030275 0.01491943 0.09102223 -0.10977687 -0.22723107 -0.21828537 -0.21112591 -0.35766095
0.34690332 -0.249746 -0.4079068 -0.033579007 -0.18459472 -0.18723562 -0.27076393 0.18329787
0.18743229 0.1893062 -0.33283916 0.3072894 -0.04959524 0.1532489 -0.4089093 0.12485391
-0.13529351 0.40851647 -0.0554969 -0.17388186 0.36680165 0.38935125 0.16725814 -0.14340834
-0.40939996 0.3905527 -0.13305475 0.24472658 0.39552835 -0.3772728 0.2529778 -0.24974579
-0.26656535 0.12395799 0.30172682 0.4074763 -0.4228763 -0.21859415 -0.060083706 -0.042249564
0.09179171 -0.07956123 -0.41841024 0.23062131 -0.2972698 -0.42713785 0.42803037 -0.4412437
-0.41065055 -0.013221166 0.3868188 -0.15477316 0.23837803 -0.31255996 0.06642008 -0.21032752
0.37310937 -0.3981922 -0.43007368 -0.2114097 -0.3540545 0.2600671 -0.38746816 -0.3046683
0.049477812 0.05635143 -0.11297377 -0.057505563 -0.20657592 -0.15139464 0.21168081 0.41066077
-0.21735884 0.070436314 -0.21048191 -0.26646385 0.060783803 0.29318476 0.10738498 -0.12114069
00000000: ebf0 93be 814d 0bbe 5edf f33d 02c3 dabc
00000010: 0b30 c33d da3b a5be 00b7 853b c083 a43c
00000020: 00f9 b1bc 209c 613e 2c74 b7be 6ac3 003e
00000030: 150c f33e 9476 1ebe 9703 2abe 319a d33d
00000040: 14a5 90bc ff46 d4be bc1c 883d 14d8 aabd
00000050: 843d ba3e f28e 98be 06dd b13e 3a98 2d3e
00000060: fa7c 9dbe 2046 a8bd 039c a6be 249a 85bd
00000070: d044 793d 2ab5 dbbe cc0b 3a3c 4740 b93e
00000080: 191a c53e 5fa7 9b3e c883 7b3e 9458 f3bd
00000090: 188d 5cbe 84e3 0fbe 044b ae3e b678 84be
000000a0: 7dee 89be b78e 88be d64e a3bc 7974 c13e
000000b0: 00e5 2f3e 34e1 c6bd 7288 b23e f018 f7bc
000000c0: 78f1 a23d c06f b7bd b74e 4f3e 8e29 ee3d
000000d0: 67eb 58be a847 903e e6c7 4dbe b5ad d13e
000000e0: 777e d5be 22a9 85bd 35eb 26be 275b 243d
000000f0: 94da 9bbe 07a9 9bbb 6032 f73e e364 3cbe
00000100: 1cc1 373e 48e9 513d c6e6 72be 15f4 76be
00000110: 4e38 90be 50f1 b93d 3f3a 26be e783 91be
00000120: 64b2 e1be 6c44 8bbe d97a 553e fb4e b7be
00000130: 7d94 be3d 5ed5 b93e 0fc9 72be b683 46bd
00000140: 1ab7 d33d 039c 4abe 6bd4 bdbe c81c 95be
00000150: 4379 643e 08ca eebd 690b f0bd ceaf c2be
00000160: 2960 83be 9336 443e 4b64 743e fc68 26bd
00000170: 6b45 dabe 5cae 813e 6ae4 cabe 591b 9dbe
00000180: 7974 93bc f44c 6bbe bd9d 81bd 4965 f03d
00000190: c82c 0a3e d00f 9f3e b154 97be 1962 dc3e
000001a0: 3957 c4be 94f3 553e 8449 6c3e 5bd4 4dbe
000001b0: dc7e 47be bdcc a3be dac6 b83e 7f66 b6bc
000001c0: 58ed 453e 6ed9 763e 12d3 bcbe 482a 9a3e
000001d0: da11 06be 900c 13be ab48 b43e 203b 3bbe
000001e0: 0816 83be d525 ce3e cde4 0d3e a090 c53e
000001f0: 9ce7 72be 1a4f 5b3e 839b ce3e 4e1c 2ebd
00000200: 32e4 b93d 008e 8ebe ecaa 10be 39e9 b9be
00000210: b301 ba3e 9059 963e 4e20 a5bd 1e4e 8d3e
00000220: cdc7 b23d 58a8 0bbe c946 323e 2b2f 9b3e
00000230: 13ec acbe ec34 a0be 57a1 6dbd 9538 c73e
00000240: f20a fdbd a80a 43be c0a7 d2bd 00cc 58bd
00000250: 6c3c 3c3e 10b6 98be e6c5 2b3d bb73 d8bd
00000260: 1d33 883e ca6e 6abe 83de ffbd 4817 e53d
00000270: b2e8 473e b1e5 d53e 4042 9ebe e519 8dbe
00000280: 1dfa 763e 10cb d4be 801b e63e 0ba6 873d
00000290: f5c0 83be c0ca 483e 0855 ccbe 76a2 3fbe
000002a0: a0da a13d a070 743c dd69 ba3d b2d2 e0bd
000002b0: 43af 68be 3386 5fbe 6431 58be 561f b7be
000002c0: 509d b13e 6abd 7fbe 29d9 d0be 248a 09bd
000002d0: 6606 3dbe b2ba 3fbe 92a1 8abe 70b2 3b3e
000002e0: 40ee 3f3e 7cd9 413e e569 aabe 0955 9d3e
000002f0: 6124 4bbd 48ed 1c3e 8f5c d1be 68b3 ff3d
00000300: 628a 0abe 1229 d13e b850 63bd 160e 32be
00000310: 6dcd bb3e 0c59 c73e b845 2b3e a3d9 12be
00000320: df9c d1be 86f6 c73e 813f 08be 9b99 7a3e
00000330: b182 ca3e e729 c1be 4e86 813e 5cbd 7fbe
00000340: 417b 88be b0dd fd3d f07b 9a3e bca0 d03e
00000350: 3e83 d8be 25d7 5fbe 551a 76bd e10d 2dbd
00000360: 4bfd bb3d 00f1 a2bd de39 d6be fe27 6c3e
00000370: bf33 98be d0b1 dabe cc26 db3e b2ea e1be
00000380: ca40 d2be 979d 58bc 1d0d c63e db7c 1ebe
00000390: 5f19 743e dc07 a0be 4007 883d 1960 57be
000003a0: 3108 bf3e d9df cbbe 9e32 dcbe c97b 58be
000003b0: a246 b5be 8427 853e 3a62 c6be 7cfd 9bbe
000003c0: 3fa9 4a3d c2d0 663d cb5e e7bd f48a 6bbd
000003d0: a388 53be 3207 1bbe dbc2 583e 2142 d23e
000003e0: 5193 5ebe ea40 903d 9288 57be f36d 88be
000003f0: 70f8 783d 501c 963e a8ec db3d 9c18 f8bd

fc1.bias f4 [64]
-0.07700833 -0.24315168 0.11338273 0.39243013 -0.33690187 -0.28306037 0.003072976 -0.33550376
-0.08236694 -0.41647965 0.32467383 0.13259664 0.19582875 -0.41545862 0.25047976 -0.050552275
0.27840427 0.33078203 -0.32385543 0.11553692 -0.1545872 -0.4454168 -0.17544323 0.22092912
0.47049838 0.26829967 -0.05420211 -0.16895151 0.25986278 -0.3692246 0.39734405 0.36375305
-0.2514397 -0.09571281 0.16521296 0.25417256 -0.19489002 0.15342018 -0.2963568 -0.40209803
0.34921372 -0.31740928 -0.040369734 0.0056500575 0.29133883 0.13346751 -0.16295801 -0.26926544
-0.018475085 -0.09203225 -0.38036075 -0.39907363 -0.3768347 0.19648272 0.18180299 0.036882896
-0.3897593 0.062159043 0.041436486 -0.26803344 0.3550073 -0.20958936 -0.11837651 0.25804782
00000000: 8bb6 9dbd c1fc 78be 3435 e83d 9aec c83e
00000010: 677e acbe 4aed 90be fb63 493b 26c7 abbe
00000020: 00b0 a8bd d23c d5be a63b a63e 6ac7 073e
00000030: 5587 483e feb6 d4be e23e 803e e70f 4fbd
00000040: 018b 8e3e 435c a93e 61d0 a5be 9f9e ec3d
00000050: 1b4c 1ebe ac0d e4be 64a7 33be 3e3b 623e
00000060: 2ae5 f03e 935e 893e 0803 5ebd a001 2dbe
00000070: bc0c 853e 020b bdbe ae70 cb3e d73d ba3e
00000080: b4bc 80be 1405 c4bd 962d 293e e822 823e
00000090: 4091 47be 2e1a 1d3e 14bc 97be cbdf cdbe
000000a0: 24cc b23e 7883 a2be bc5a 25bd 1e24 b93b
000000b0: 5d2a 953e b5ab 083e 77de 26be 29dd 89be
000000c0: 1059 97bc 677b bcbd a5be c2be 6153 ccbe
000000d0: 7af0 c0be c432 493e 902a 3a3e 8512 173d
000000e0: 888e c7be 7b9a 7e3d 4eb9 293d ae3b 89be
000000f0: 84c3 b53e 989e 56be 626f f2bd d81e 843e

fc2.weight f4 [64, 64]
0.041646667 -0.10772316 0.008405437 0.10866912 -0.045765024 0.00014950335 -0.06406176 -0.050473943
-0.07497605 -0.06369443 0.025471404 0.018934939 -0.13617565 -0.100046664 0.14535557 -0.041985165
0.14749156 0.045198794 0.04170993 0.09182851 0.01832222 -0.0027595013 -0.05129591 0.13141826
0.09976281 -0.07874409 0.011007859 -0.006325133 0.01581824 0.017097965 0.038992926 -0.07839665
-0.09229706 -0.0927303 0.029283594 0.027094852 -0.08810295 -0.011077655 -0.054513887 -0.049017556
-0.086106 -0.029964775 0.08920105 0.039149925 0.05985849 -0.044675853 -0.044606976 -0.04771237
-0.006683537 0.10167604 -0.076164365 -0.07506867 -0.015093446 0.11912112 -0.1126729 -0.084564
-0.10611208 0.15607587 0.14821726 0.09666853 0.07831181 -0.048015982 0.100654066 0.039107267
-0.09676706 0.004830286 -0.062622 0.0076260488 -0.01070547 0.007766083 0.023958229 -0.026729047
-0.01123408 -0.11670482 0.02115882 -0.021176968 0.11334125 0.046341315 -0.032030743 -0.10087065
-0.090185665 -0.053324264 0.076297075 -0.1580786 -0.12465534 -0.031436235 0.045113727 0.078049526
0.111409865 0.09520005 0.028019814 0.019604785 -0.07754847 0.06894679 0.05683876 0.10605133
0.060467016 0.110957265 -0.094562255 -0.019605277 0.01799041 -0.007402308 -0.06236759 0.044987462
0.0857022 -0.10189475 0.10567188 -0.09955606 -0.043224152 0.056582134 0.008884945 -0.100811824
0.0928832 -0.012489468 0.12268564 -0.061262205 -0.07957347 0.02412026 0.041958664 0.1292631
0.0145083815 -0.06468694 -0.12466042 0.08052465 -0.03174743 0.06448877 -0.0020334763 -0.1109532
0.004739297 0.08424848 -0.055739284 0.08650427 -0.050436895 0.1227313 0.030811505 -0.05950938
0.01879003 0.099330574 0.018879117 -0.08251774 0.036227997 0.099926576 -0.1410183 0.03267632
0.050144456 0.050086804 -0.03895119 -0.07845023 0.04194253 0.032757685 -0.021426542 0.111203246
0.112943724 -0.108928904 0.06715801 -0.05357285 0.066692226 -0.123696655 -0.014025052 0.09864083
0.09543275 -0.042941585 -0.0900409 -0.12764306 0.026991352 0.08076239 -0.030869111 0.10835973
-0.01711261 -0.11295396 0.016958557 0.101256974 -0.007538368 0.07093932 0.012245111 -0.091416076
0.109344095 -0.0078039477 -0.09305917 -0.1139577 -0.069469124 -0.08641782 -0.05528097 -0.08684739
0.0813044 -0.10162349 -0.034832876 -0.08501595 -0.011762721 -0.11827932 0.077000044 -0.13421349
-0.081725836 -0.05060084 0.0683111 0.09756204 -0.05637985 -0.07319386 0.037588324 0.006763622
-0.06483943 -0.0027442276 -0.08727078 0.087781765 -0.016867654 0.06614448 -0.09412406 -0.060361996
0.117805175 0.0952218 -0.0878722 0.100665264 0.11040143 0.08575459 -0.000288604 -0.048736013
-0.05456415 0.06479832 0.0908687 -0.05915507 -0.12329761 -0.06957424 0.06150721 0.07983952
0.090271205 -0.058730498 0.0130057875 0.088690825 0.074768424 0.08621557 0.0249445 -0.05068385
-0.06536663 -0.05227101 -0.00059442426 -0.006666503 -0.07649058 0.114254236 -0.12456459 -0.03619179
0.08449574 -0.086358555 0.06960422 0.02981563 0.088697284 -0.10668833 0.014027035 -0.089020655
0.121881485 0.07433725 -0.08439927 0.079844534 -0.06559747 0.09934439 -0.0367414 -0.100572646
00000000: b295 2a3d f69d dcbd f5b6 093c ea8d de3d
00000010: 1b74 3bbd 00c4 1c39 d032 83bd c4bd 4ebd
00000020: 0b8d 99bd 3a72 82bd 68a9 d03c 721d 9b3c
00000030: a171 0bbe 44e5 ccbd 17d8 143e a3f8 2bbd
00000040: 0708 173e 5f22 393d 08d8 2a3d 9610 bc3d
00000050: 7b18 963c c0d8 34bb a91b 52bd 8292 063e
00000060: 7250 cc3d 9544 a1bd 4f5a 343c 1043 cfbb
00000070: 4195 813c 0811 8c3c 0cb7 1f3d 6c8e a0bd
00000080: 3e06 bdbd 62e9 bdbd 26e4 ef3c 06f6 dd3c
00000090: 526f b4bd 0d7f 35bc f449 5fbd a2c6 48bd
000000a0: 5858 b0bd b078 f5bc 0aaf b63d ac5b 203d
000000b0: 2d2e 753d 07fe 36bd ceb5 36bd 0c6e 43bd
000000c0: 9201 dbbb 873b d03d 10fc 9bbd 9abd 99bd
000000d0: 804a 77bc c6f5 f33d 0dc1 e6bd e42f adbd
000000e0: 4a51 d9bd 5ad2 1f3e 44c6 173e 26fa c53d
000000f0: f161 a03d 68ac 44bd b823 ce3d f12e 203d
00000100: cf2d c6bd 6047 9e3b f73f 80bd efe3 f93b
00000110: ff65 2fbc a07a fe3b 0c44 c43c e0f6 dabc
00000120: 260f 38bc f002 efbd 4355 ad3c 527b adbc
00000130: 751f e83d 64d0 3d3d ab32 03bd 4595 cebd
00000140: 43b3 b8bd 8b6a 5abd a441 9c3d 5bdf 21be
00000150: 4d4b ffbd 48c3 00bd 2cc9 383d 6ed8 9f3d
00000160: db2a e43d 3ef8 c23d cf89 e53c 379a a03c
00000170: bbd1 9ebd fa33 8d3d c2cf 683d 7131 d93d
00000180: 43ac 773d 903d e33d dba9 c1bd 3f9b a0bc
00000190: a060 933c 0f8f f2bb 2875 7fbd c644 383d
000001a0: a384 af3d 32ae d0bd 806a d83d 0ce4 cbbd
000001b0: cf0b 31bd abc2 673d 2992 113c 6e76 cebd
000001c0: 8c39 be3d a0a0 4cbc 9c42 fb3d 14ee 7abd
000001d0: 6af7 a2bd da97 c53c d9dc 2b3d 8c5d 043e
000001e0: 90b4 6d3c 967a 84bd f64d ffbd 1cea a43d
000001f0: 9809 02bd b012 843d 1244 05bb 6e3b e3bd
00000200: 1b4c 9b3b 788a ac3d e04e 64bd 2729 b13d
00000210: eb96 4ebd 8c5a fb3d 6968 fc3c 1cc0 73bd
00000220: 8ded 993c d46d cb3d 61a8 9a3c 10ff a8bd
00000230: cf63 143d 4ea6 cc3d 1a67 10be 9bd7 053d
00000240: 4664 4d3d d227 4d3d 488b 1fbd 84aa a0bd
00000250: eecb 2b3d ec2c 063d b786 afbc 87be e33d
00000260: 0a4f e73d 1e16 dfbd 248a 893d 346f 5bbd
00000270: ef95 883d ac54 fdbd 55c9 65bc 3404 ca3d
00000280: 3f72 c33d 84e3 2fbd 5d67 b8bd ddb4 02be
00000290: f81c dd3c c066 a53d 38e1 fcbc b5eb dd3d
000002a0: bf2f 8cbc 6854 e7bd acec 8a3c d15f cf3d
000002b0: 6a04 f7bb a248 913d b89f 483c 5a38 bbbd
000002c0: ccef df3d 42b8 ffbb ce95 bebd a862 e9bd
000002d0: d445 8ebd d3fb b0bd 4c6e 62bd 0bdd b1bd
000002e0: ec82 a63d fa1f d0bd ebac 0ebd d81c aebd
000002f0: 6eb8 40bc 6e3c f2bd 33b2 9d3d 436f 09be
00000300: e05f a7bd d442 4fbd b1e6 8b3d 9bce c73d
00000310: 8fee 66bd aae6 95bd 37f6 193d 60a1 dd3b
00000320: 89ca 84bd 80d8 33bb 06bb b2bd edc6 b33d
00000330: 092e 8abc c276 873d 1dc4 c0bd 243e 77bd
00000340: d743 f13d a603 c33d 57f6 b3bd 9729 ce3d
00000350: 251a e23d 1aa0 af3d c64f 97b9 6a9f 47bd
00000360: a87e 5fbd fbb4 843d 5e19 ba3d 964c 72bd
00000370: 7583 fcbd f07c 8ebd fcee 7b3d e782 a33d
00000380: 1ce0 b83d 648f 70bd 3a16 553c 89a3 b53d
00000390: 3020 993d ca91 b03d 6858 cc3c de99 4fbd
000003a0: f1de 85bd 201a 56bd 23d3 1bba ae72 dabb
000003b0: 18a7 9cbd 20fe e93d b81b ffbd d83d 14bd
000003c0: 1a0c ad3d c1dc b0bd a88c 8e3d e83f f43c
000003d0: eca6 b53d 697f dabd a6d1 653c 7650 b6bd
000003e0: 009d f93d 213e 983d 86d9 acbd 8885 a33d
000003f0: f757 86bd 1275 cb3d 267e 16bd 08f9 cdbd

fc2.bias f4 [64]
-0.012530949 0.09830643 0.10837147 -0.11054118 0.013758306 -0.030543633 0.06948309 -0.027053066
-0.04307562 0.07340117 0.03437729 0.09022998 0.00587644 -0.11296511 0.045898933 0.05100643
0.06998502 -0.02218966 0.067971766 0.052608404 0.07253049 0.0963398 -0.056727033 -0.051078215
0.0852926 0.06938568 0.025760254 -0.032676477 -0.03261018 -0.08287354 -0.08892692 -0.05220907
0.10729751 -0.061245743 0.09331762 -0.08651502 0.04744417 0.10731697 0.122864 -0.03578188
0.03234271 -0.024143804 -0.02801396 0.0006877955 -0.038832355 -0.05185297 0.12076446 -0.07477962
-0.04826978 -0.080218926 0.0037459373 0.030936394 -0.09551028 -0.054949358 -0.040341876 -0.0789279
0.12881725 0.07573047 0.10112396 0.08708981 0.08629575 -0.06394523 -0.034886938 0.10778028
00000000: 9c4e 4dbc e254 c93d dcf1 dd3d 6a63 e2bd
00000010: 856a 613c a436 fabc 264d 8e3d 649e ddbc
00000020: 1070 30bd 5a53 963d 34cf 0c3d 7fca b83d
00000030: 278f c03b 405a e7bd 8500 3c3d 1eec 503d
00000040: 4e54 8f3d 17c7 b5bc c834 8b3d e97b 573d
00000050: de8a 943d cd4d c53d 9b5a 68bd 6437 51bd
00000060: e3ad ae3d 141a 8e3d 2b07 d33c c5d7 05bd
00000070: 4192 05bd 9ab9 a9bd 511f b6bd 2ed9 55bd
00000080: ccbe db3d d1dc 7abd 4f1d bf3d c92e b1bd
00000090: d154 423d 00c9 db3d 1fa0 fb3d 0590 12bd
000000a0: ca79 043d 3ac9 c5bc 887d e5bc 2d4d 343a
000000b0: ad0e 1fbd c863 54bd 5b53 f73d 0f26 99bd
000000c0: 88b6 45bd d249 a4bd 667e 753b 526e fd3c
000000d0: e59a c3bd 9412 61bd 863d 25bd f3a4 a1bd
000000e0: abe8 033e 9418 9b3d 141a cf3d 245c b23d
000000f0: d4bb b03d b7f5 82bd 9be5 0ebd e8bb dc3d

fc3.weight f4 [64, 64]
-0.01781245 -0.054098852 0.0075368006 0.12105996 -0.07447639 -0.03940194 0.09459875 -0.029669574
-0.04243937 0.0022848865 -0.12101716 0.06883493 -0.05797018 0.021230265 -0.018716948 0.11011705
-0.12610379 0.049199346 -0.02180213 0.11922503 0.05511201 -0.083386324 0.018190242 0.11204715
-0.02411818 0.055318 0.0039351126 0.014829398 0.036155205 -0.044825412 0.014588029 -0.1041018
-0.049562614 -0.004649433 0.026316488 -0.029165654 0.055363532 0.10618836 -0.11564049 0.10908081
-0.006058422 -0.047396615 -0.047981173 -0.034483086 0.106654406 0.04125887 -0.090187736 -0.083759315
0.100149706 -0.10364723 0.054263342 0.14683938 -0.074132964 0.0052069724 0.044613965 0.056839753
-0.07132235 -0.052003793 -0.0478912 -0.14046715 0.079992 0.019903693 0.10182114 -0.0875366
-0.039652996 0.06495647 0.060521036 -0.020625401 -0.07428791 0.021910911 -0.1333497 0.043268383
0.11592081 0.058156434 0.1059234 0.0076294015 -0.018426878 0.09352912 0.104758225 -0.034846723
0.087354235 -0.09677904 -0.07969792 0.09539655 0.064861946 0.013172907 -0.06604421 0.11509108
0.078545555 0.05741901 0.06542495 -0.042209677 -0.09588885 0.05676725 -0.035901938 -0.06303902
-0.08237081 0.051302824 0.0044286964 -0.08450936 -0.08197153 0.07672691 -0.02146048 0.03813472
-0.059662778 -0.016474046 0.11932659 -0.108950496 0.0120826205 0.1028679 -0.118921526 -0.060717214
-0.115908146 -0.11320712 0.058746167 -0.008101534 0.03931349 0.020032331 0.064018145 0.014744998
0.13784942 -0.104669414 0.052878387 0.1328659 -0.08140426 -0.03500273 -0.05806335 -0.06068693
0.010982894 0.016003063 0.037775204 -0.10200299 0.03922187 -0.030466635 0.12098538 -0.030516602
-0.0729785 0.0076320125 -0.118150115 -0.07226388 0.008393083 0.054411754 0.059812438 -0.049371842
-0.03300187 -0.053590126 0.08355939 -0.04316812 -0.11118528 0.1132326 -0.026666807 0.11999304
0.015513093 0.0028592958 -0.0012438074 0.04998536 0.08827067 0.06635348 -0.054006055 -0.033706427
-0.04161216 0.11733061 -0.08254149 0.0779785 -0.1280296 -0.070645586 -0.025727425 0.116711125
0.089753814 -0.085675634 -0.06613694 -0.037918746 -0.068568304 0.057857424 0.10890079 0.067392685
-0.0057894588 0.04014057 0.04640465 -0.09512358 -0.119938225 -0.10257046 0.12218112 0.04687916
-0.0037315441 -0.06110951 0.056036245 -0.104991026 0.07757641 0.03677782 -0.030061051 0.005541922
0.062882364 -0.00805901 0.12334789 0.08280453 -0.038296983 -0.032411203 0.06024839 0.07996908
0.059869215 -0.008526593 -0.055521965 -0.10074805 -0.005689144 -0.066225365 -0.07690516 -0.071715534
-0.10947935 0.03763026 0.10549405 -0.03461142 0.015714422 -0.044093743 0.01647517 0.05764377
-0.060312063 0.045994118 -0.0108689815 -0.0012165159 -0.055996597 -0.06597197 -0.081327766 -0.043856606
0.03694907 -0.00998418 -0.10656792 0.0059903264 -0.040144637 0.059257194 -0.08319646 0.00010210276
0.01179339 -0.032310322 -0.06407295 0.007339716 0.056004614 0.11681253 -0.1090706 -0.098841384
0.04765962 0.09154248 0.03025435 0.001519382 0.05103028 0.08974655 -0.06822789 0.041719586
-0.11824578 -0.044069633 0.05134633 0.08619203 0.103473574 0.023589328 -0.090031 -0.0992523
00000000: 6aeb 91bc c296 5dbd 44f7 f63b 49ee f73d
00000010: 1487 98bd ee63 21bd fdbc c13d 9b0d f3bc
00000020: e8d4 2dbd 09be 153b d8d7 f7bd 54f9 8c3d
00000030: 2472 6dbd 18eb ad3c 4954 99bc 0c85 e13d
00000040: 5a21 01be 4185 493d 619a b2bc 412c f43d
00000050: 22bd 613d 73c6 aabd b403 953c fa78 e53d
00000060: 7d93 c5bc 2195 623d 1ef2 803b 01f7 723c
00000070: 7b17 143d da9a 37bd a102 6f3c 5333 d5bd
00000080: 2b02 4bbd 455a 98bb ad95 d73c cfec eebc
00000090: dfc4 623d 4879 d93d ecd4 ecbd c265 df3d
000000a0: ba85 c6bb f422 42bd e887 44bd 233e 0dbd
000000b0: a06d da3d 10ff 283d 59b4 b8bd 018a abbd
000000c0: 4a1b cd3d 0045 d4bd 3d43 5e3d 105d 163e
000000d0: 06d3 97bd 409f aa3b 22bd 363d cdd0 683d
000000e0: 7411 92bd ee01 55bd 9029 44bd 9fd6 0fbe
000000f0: d8d2 a33d 120d a33c 9a87 d03d 6446 b3bd
00000100: 2e6b 22bd e607 853d e8e4 773d 9af6 a8bc
00000110: 4224 98bd 837e b33c d38c 08be 303a 313d
00000120: e467 ed3d 7135 6e3d 5eee d83d 0f00 fa3b
00000130: f7f3 96bc 328c bf3d 7b8b d63d 70bb 0ebd
00000140: c7e6 b23d 1734 c6bd aa38 a3bd 445f c33d
00000150: 57d6 843d 2dd3 573c 3042 87bd dfb4 eb3d
00000160: 7edc a03d 3230 6b3d 84fd 853d 0ee4 2cbd
00000170: 6061 c4bd c784 683d e90d 13bd 9a1a 81bd
00000180: 07b2 a8bd e922 523d 991e 913b 3e13 adbd
00000190: b1e0 a7bd 0023 9d3d e3cd afbc 2733 1c3d
000001a0: f560 74bd 94f4 86bc 8061 f43d 7021 dfbd
000001b0: 2ff6 453c 68ac d23d 218d f3bd 9db2 78bd
000001c0: 4061 edbd 22d9 e7bd d29f 703d 4cbc 04bc
000001d0: 2f07 213d d81a a43c f21b 833d 0195 713c
000001e0: 6628 0d3e eb5c d6bd 0297 583d 000e 083e
000001f0: 47b7 a6bd 065f 0fbd d6d3 6dbd dc92 78bd
00000200: 99f1 333c db18 833c 2cba 1a3d f2e6 d0bd
00000210: 1da7 203d 2a95 f9bc 2fc7 f73d f4fd f9bc
00000220: c075 95bd f615 fa3b b0f8 f1bd 16ff 93bd
00000230: 2483 093c dcde 5e3d e3fd 743d 213a 4abd
00000240: f82c 07bd 5281 5bbd 2f21 ab3d 0ed1 30bd
00000250: 1cb5 e3bd 7ee6 e73d 5974 dabc e9be f53d
00000260: a12a 7e3c 0663 3b3b 4007 a3ba 73bd 4c3d
00000270: 41c7 b43d 55e4 873d 7435 5dbd c00f 0abd
00000280: 8371 2abd 084b f03d 830b a9bd 31b3 9f3d
00000290: 311a 03be a2ae 90bd 52c2 d2bc 3e06 ef3d
000002a0: d9d0 b73d b576 afbd ce72 87bd b050 1bbd
000002b0: 8a6d 8cbd e8fb 6c3d 6107 df3d 2d05 8a3d
000002c0: 80b5 bdbb 706a 243d cd12 3e3d 27d0 c2bd
000002d0: 2ca2 f5bd 7610 d2bd 183a fa3d 5d04 403d
000002e0: ec8c 74bb f74d 7abd 4386 653d 8905 d7bd
000002f0: 61e0 9e3d 57a4 163d 9842 f6bc 0399 b53b
00000300: 78c8 803d f009 04bc d29d fc3d 6c95 a93d
00000310: 4cdd 1cbd 9cc1 04bd 04c7 763d d4c6 a33d
00000320: 6c39 753d 20b3 0bbc 006b 63bd fe54 cebd
00000330: 006c babb 2aa1 87bd 7480 9dbd 98df 92bd
00000340: b636 e0bd 3022 1a3d 440d d83d b4c4 0dbd
00000350: 88bb 803c a49b 34bd f0f6 863c e01b 6c3d
00000360: c809 77bd 5464 3c3d d013 32bc 8073 9fba
00000370: b05c 65bd 501c 87bd 2c8f a6bd fca2 33bd
00000380: e857 173d b094 23bc 4840 dabd 804a c43b
00000390: b46e 24bd acb7 723d e862 aabd 0020 d638
000003a0: 1039 413c d457 04bd ae38 83bd 0082 f03b
000003b0: 1865 653d 683b ef3d 6860 dfbd 5a6d cabd
000003c0: bc36 433d a07a bb3d f8d7 f73c 0026 c73a
000003d0: 2005 513d 0acd b73d 10bb 8bbd 28e2 2a3d
000003e0: d82a f2bd 5c82 34bd 8850 523d 7285 b03d
000003f0: f4e9 d33d 683e c13c 2c62 b8bd ca44 cbbd

fc3.bias f4 [64]
0.091827445 0.024623211 0.12956111 -0.029225215 -0.06868702 0.03909336 0.110663705 -0.12384871
-0.063515216 -0.062633276 -0.104308486 0.08577804 0.13121715 -0.020685561 0.032576174 0.06036862
-0.074065775 -0.11424598 -0.118643105 -0.06492221 -0.063102335 -0.09914607 0.04998095 0.12628824
-0.08414681 0.11011706 -0.12189223 -0.0050277566 0.059824135 0.006424484 -0.0988957 -0.020965267
0.009879185 -0.1055419 -0.09478363 0.120900616 -0.016486846 -0.09420033 -0.047725797 0.029337976
0.09977219 -0.10621385 -0.03749277 0.12288701 0.07473211 -0.0034817755 -0.08334647 -0.057330787
0.11085154 -0.081689395 0.059417807 0.07876991 -0.006041709 -0.06451213 0.007454847 0.02115947
-0.11196938 0.03094041 -0.078180455 -0.025863126 0.09921836 -0.009485694 -0.03780146 -0.1165435
00000000: 0710 bc3d 9eb6 c93c abab 043e b869 efbc
00000010: c8ab 8cbd 5c20 203d a7a3 e23d 64a4 fdbd
00000020: 4414 82bd e045 80bd b09f d5bd 66ac af3d
00000030: ca5d 063e c474 a9bc 986e 053d 1645 773d
00000040: ccaf 97bd ccf9 e9bd 28fb f2bd f0f5 84bd
00000050: cc3b 81bd 180d cbbd d3b8 4c3d b451 013e
00000060: 2a55 acbd 0e85 e13d a2a2 f9bd e1bf a4bb
00000070: 270a 753d 7a84 d23b d489 cabd 5abf abbc
00000080: 4edc 213c 5a26 d8bd eb1d c2bd be9a f73d
00000090: 6c0f 87bc 1aec c0bd 207c 43bd 3256 f03c
000000a0: 5d55 cc3d a686 d9bd 0592 19bd 2fac fb3d
000000b0: 260d 993d 802e 64bb 8eb1 aabd b0d3 6abd
000000c0: 2206 e33d c54c a7bd 1660 733d 1e52 a13d
000000d0: 87f9 c5bb f01e 84bd ca47 f43b a056 ad3c
000000e0: 3450 e5bd be76 fd3c 131d a0bd e8de d3bc
000000f0: ff32 cb3d e269 1bbc b4d5 1abd 5cae eebd

fc4.weight f4 [64, 64]
0.12212083 -0.04791002 0.0800582 0.008389264 -0.050669998 0.11075035 -0.016950905 0.017081395
0.035294965 -0.046074927 -0.008124962 0.04089527 -0.109195784 0.082755715 0.106380135 -0.118831545
-0.062034324 -0.10890363 -0.08784814 0.027412295 -0.074077845 -0.03280197 0.042158365 -0.10645707
0.02311337 0.10845339 -0.049395397 -0.104336455 -0.10310753 0.018958658 -0.058195263 -0.0959281
-0.11075565 -0.015613943 0.03418316 -0.112417206 0.0034077913 0.052669898 0.085034 -0.03675835
0.123364255 -0.040257588 0.0878385 0.08345786 0.11711322 0.030343026 -0.03309031 -0.025779411
-0.06846988 -0.045026377 -0.035631344 0.043073475 -0.03518085 0.044265196 -0.040719762 -0.09920652
0.014961064 -0.05091773 -0.022243887 -0.09549543 -0.043314815 -0.010611266 -0.0016045421 0.009717882
0.099237695 -0.07878339 -0.071219295 0.080240056 0.014656603 0.030567825 0.018110842 0.09069052
-0.012856826 0.0147948265 0.08331458 -0.118899986 0.052873254 0.0061270297 -0.10119839 -0.04140921
0.061167717 0.012053013 0.0023720264 -0.06682177 0.07953879 0.0562229 0.09084822 0.02677305
-0.100247234 -0.05505669 -0.09016137 -0.09932594 -0.024173453 0.01846385 -0.04846424 -0.0060794353
0.094498575 0.033353597 -0.069663465 0.022302017 -0.017833814 -0.03174506 0.06689294 -0.102521
0.032005742 0.07572749 0.073475316 -0.06650181 0.02470626 -0.056638315 0.03617327 0.088124886
-0.1203139 -0.07480337 0.041327298 -0.07349062 0.0624194 0.12059675 -0.048000276 -0.10476908
0.09866695 0.023597196 -0.07989061 -0.08751534 -0.010702282 0.07090658 -0.028944358 -0.00067673624
-0.097860634 0.07794422 -0.029137254 -0.123585254 0.038583532 0.12496966 -0.103324324 0.043900937
0.115633234 -0.11172217 0.091414526 0.09407516 0.06267482 0.0783456 0.10412222 0.09014772
0.08728427 -0.09171252 -0.053135023 -0.06261034 0.093908295 -0.058146775 0.096427366 -0.10384159
0.06916185 -0.07619265 0.005681291 0.10639791 0.038684875 0.04913321 -0.04568748 0.01301375
0.041092142 -0.10078813 -0.0057309866 -0.08461963 -0.04245265 0.035621792 -0.0074155927 0.012226984
0.030961737 -0.11643036 -0.08038862 -0.06447254 0.07435264 -0.07525958 -0.023317844 -0.055354163
-0.07884003 -0.023496002 0.003649816 0.006486848 0.08799164 0.047672436 0.0588035 -0.085509956
-0.11812113 -0.08230968 -0.023831874 -0.0213968 -0.0015824139 0.08454125 0.015958041 0.10045658
-4.576969e-05 -0.096934274 0.104297996 0.12229328 -0.117930055 0.06864585 0.061108503 0.08968064
-0.116043 -0.07875733 0.12304771 0.078245915 0.1348988 -0.06648213 0.07196936 0.0576071
0.027465105 0.046705335 -0.062441017 -0.10611147 -0.014494419 -0.05250518 0.023870034 -0.10003286
0.05227132 -0.11845779 0.084673 -0.041716255 0.15777442 0.09650446 -0.080935955 -0.056326214
0.071480654 -0.07020047 -0.07752884 0.02963556 -0.03137366 -0.1073838 -0.030908078 -0.032936815
-0.11396539 -0.099390335 0.09768358 0.123696625 -0.020942207 0.123888284 -0.12475872 0.11681919
0.024241088 0.0946844 -0.13263923 -0.087286055 -0.047479205 0.09915821 0.07229663 -0.10347439
-0.06725213 -0.008040961 -0.038129352 -0.101509035 0.033954598 0.059428744 0.054835334 -0.0866674
00000000: 7c1a fa3d 4c3d 44bd 8ef5 a33d 2073 093c
00000010: 588b 4fbd 14d1 e23d a0dc 8abc 48ee 8b3c
00000020: 7491 103d 10b9 3cbd 901e 05bc cc81 273d
00000030: 0aa2 dfbd d47b a93d d4dd d93d f45d f3bd
00000040: b417 7ebd de08 dfbd bae9 b3bd c08f e03c
00000050: 20b6 97bd 5c5b 06bd 40ae 2c3d 2a06 dabd
00000060: 4058 bd3c d01c de3d d452 4abd 5aae d5bd
00000070: 0a2a d3bd 304f 9b3c 285e 6ebd f475 c4bd
00000080: dcd3 e2bd a0d1 7fbc a403 0c3d fe3a e6bd
00000090: 4055 5f3b 64bc 573d 4e26 ae3d ec8f 16bd
000000a0: 66a6 fc3d 24e5 24bd ace4 b33d f4eb aa3d
000000b0: 0ed9 ef3d f091 f83c b489 07bd 582f d3bc
000000c0: f039 8cbd 946d 38bd 2cf2 11bd d06d 303d
000000d0: cc19 10bd 6c4f 353d c4c9 26bd ca2c cbbd
000000e0: 401f 753c 1c8f 50bd d038 b6bc 1c93 c3bd
000000f0: e06a 31bd e0da 2dbc 804f d2ba c037 1f3c
00000100: 223d cb3d 3059 a1bd 6cdb 91bd e654 a43d
00000110: 4022 703c 6069 fa3c 305d 943c f4bb b93d
00000120: 70a5 52bc 0066 723c d6a0 aa3d d681 f3bd
00000130: a091 583d 40c5 c83b 1a41 cfbd b49c 29bd
00000140: 008b 7a3d 007a 453c 0074 1b3b dad9 88bd
00000150: 3ce5 a23d fc49 663d a20e ba3d 2853 db3c
00000160: 6c4e cdbd 2083 61bd 86a6 b8bd 666b cbbd
00000170: 6807 c6bc 8041 973c 7082 46bd 0036 c7bb
00000180: 7888 c13d c89d 083d b8ab 8ebd b8b2 b63c
00000190: 3818 92bc 1c07 02bd 2aff 883d 88f6 d1bd
000001a0: 7418 033d 0417 9b3d 3a7a 963d 1a32 88bd
000001b0: c864 ca3c 94fd 67bd 6c2a 143d d27a b43d
000001c0: 2267 f6bd 8232 99bd d046 293d 4082 96bd
000001d0: 7cab 7f3d 6efb f63d f09b 44bd 2c91 d6bd
000001e0: e611 ca3d e84e c13c b09d a3bd 3e3b b3bd
000001f0: a058 2fbc 7837 913d b81c edbc 0067 31ba
00000200: 286b c8bd 38a1 9f3d 40b1 eebc 441a fdbd
00000210: c409 1e3d 18f0 ff3d b49b d3bd 78d1 333d
00000220: 1ed1 ec3d 98ce e4bd 8a37 bb3d 7aaa c03d
00000230: a85b 803d a873 a03d 083e d53d 5e9f b83d
00000240: 18c2 b23d c6d3 bbbd 1ca4 59bd da39 80bd
00000250: fe52 c03d 502b 6ebd b67b c53d e6aa d4bd
00000260: baa4 8d3d e40a 9cbd 202a ba3b 26e7 d93d
00000270: 0874 1e3d e83f 493d cc22 3bbd a037 553c
00000280: 3c50 283d 026a cebd 00cb bbbb 0e4d adbd
00000290: d4e2 2dbd 28e8 113d 80fe f2bb b053 483c
000002a0: 78a3 fd3c 0a73 eebd caa2 a4bd 2e0a 84bd
000002b0: 3246 983d b221 9abd 1005 bfbc 0cbb 62bd
000002c0: e276 a1bd b07a c0bc c031 6f3b a08f d43b
000002d0: f634 b43d 2c44 433d f0db 703d d81f afbd
000002e0: 7ee9 f1bd fa91 a8bd 103b c3bc 5848 afbc
000002f0: 0069 cfba f623 ad3d 70ba 823c 2ebc cd3d
00000300: d5f8 3fb8 7a85 c6bd 309a d53d e674 fa3d
00000310: 5085 f1bd 3296 8c3d e94c 7a3d 7caa b73d
00000320: f4a7 edbd 864b a1bd 7000 fc3d 653f a03d
00000330: e922 0a3e c827 88bd ac64 933d 6cf5 6b3d
00000340: 80fe e03c 184e 3f3d 27c2 7fbd f850 d9bd
00000350: 007a 6dbc ac0f 57bd 178b c33c 07de ccbd
00000360: 741a 563d ff99 f2bd 0a69 ad3d aade 2abd
00000370: 9e8f 213e 21a4 c53d c0c1 a5bd 51b6 66bd
00000380: 7364 923d 44c5 8fbd 71c7 9ebd 46c6 f23c
00000390: ab81 00bd 0aec dbbd f032 fdbc c1e8 06bd
000003a0: b066 e9bd 298d cbbd 540e c83d a854 fd3d
000003b0: fe8e abbc 24b9 fd3d 8081 ffbd e63e ef3d
000003c0: 3f95 c63c e5e9 c13d 94d2 07be 08c3 b2bd
000003d0: 8e79 42bd 7613 cb3d 4110 943d 62ea d3bd
000003e0: 7cbb 89bd 3cbe 03bc 862d 1cbd f8e3 cfbd
000003f0: fa13 0b3d 8e6b 733d 049b 603d ae7e b1bd

fc4.bias f4 [64]
-0.104481995 -0.08159128 -0.101731926 -0.0012257308 0.04443818 -0.11090955 0.07553373 -0.10531013
-0.046354156 0.0613966 -0.036907285 -0.09681384 -0.0026143033 -0.036352813 -0.07306956 -0.08748299
0.004838484 -0.047722653 -0.04496001 -0.111551374 0.032882996 -0.013742298 -0.07412568 0.02845287
-0.03541307 -0.0005919831 0.124782 0.03665896 -0.02154179 0.034786552 0.10693977 0.04561306
-0.09346758 -0.034469426 0.04572828 0.0392472 0.06534755 -0.014873265 0.05158916 0.003934264
0.10136345 -0.107770994 0.08847544 -0.06597106 -0.0998521 0.014735356 0.11676614 0.100007154
0.006238918 0.037237085 0.088435836 -0.112775534 0.049572185 0.122652985 -0.0672016 0.0028090465
-0.042943552 -0.116773024 -0.022205185 -0.0060684853 -0.01444433 0.09260998 -0.1073166 -0.08534624
00000000: a8fa d5bd 5419 a7bd d458 d0bd b3a8 a0ba
00000010: cf04 363d 8c24 e3bd 6eb1 9a3d d6ac d7bd
00000020: dbdd 3dbd 007b 7b3d 182c 17bd 5646 c6bd
00000030: bb54 2bbb b0e6 14bd 7ea5 95bd 482a b3bd
00000040: 258c 9e3b d478 43bd fd27 38bd 0c75 e4bd
00000050: 52b0 063d 6027 61bc 34cf 97bd fe15 e93c
00000060: 4c0d 11bd 502f 1bba b58d ff3d b527 163d
00000070: 6878 b0bc 587c 0e3d 3d03 db3d c3d4 3a3d
00000080: ee6b bfbd d02f 0dbd 944d 3b3d acc1 203d
00000090: f0d4 853d ffae 73bc 284f 533d 00eb 803b
000000a0: a497 cf3d 0ab7 dcbd 9d32 b53d d61b 87bd
000000b0: 427f ccbd 906c 713c 1623 ef3d 8dd0 cc3d
000000c0: d66f cc3b ea85 183d d91d b53d dcf6 e6bd
000000d0: 340c 4b3d 7d31 fb3d fea0 89bd fb17 383b
000000e0: 94e5 2fbd b226 efbd a6e7 b5bc 25da c6bb
000000f0: e9a7 6cbc 4daa bd3d cec8 dbbd 02ca aebd

actor.weight f4 [1, 64]
-0.092678174 0.10261759 -0.005856648 -0.084448464 0.042016257 -0.11161427 -0.09872784 0.040876105
-0.08513273 0.048544448 -0.10038775 0.0036610514 -0.06203098 -0.019142428 -0.09300168 -0.06987409
-0.09979667 -0.044504914 0.12962165 -0.10113393 -0.07225457 -0.09698058 0.046391785 -0.12362332
0.08403626 0.029499693 0.118713625 -0.120514385 0.019528136 -0.015953941 -0.038563766 -0.12315314
0.07934037 -0.01886198 0.057690598 0.088302195 -0.13013728 0.031897746 -0.12279183 0.10082318
-0.06438061 -0.10062292 -0.077446595 0.07704559 0.07923335 -0.04648511 0.113850914 -0.064142615
0.09919998 -0.033914912 -0.016351316 0.05193357 0.12964356 0.03275283 0.12389012 -0.13512346
-0.04411903 0.026051968 0.115516156 -0.11069835 -0.045728114 0.03530407 -0.044410974 -0.0640171
00000000: 0ece bdbd 2c29 d23d 20e9 bfbb 51f3 acbd
00000010: 3d19 2c3d 0696 e4bd d231 cabd b46d 273d
00000020: 125a aebd 8bd6 463d 1898 cdbd 40ee 6f3b
00000030: 3214 7ebd 95d0 9cbc aa77 bebd 261a 8fbd
00000040: 3262 ccbd c94a 36bd 8abb 043e 4e1f cfbd
00000050: 34fa 93bd c19d c6bd 5005 3e3d 392e fdbd
00000060: 341b ac3d 57a9 f13c 2120 f33d 3fd0 f6bd
00000070: 78f9 9f3c d7b1 82bc 0af5 1dbd b737 fcbd
00000080: 347d a23d 7084 9abc fa4c 6c3d c8d7 b43d
00000090: b542 05be 36a7 023d 487a fbbd 627c ce3d
000000a0: fbd9 83bd 6413 cebd 529c 9ebd 14ca 9d3d
000000b0: 1845 a23d 2c67 3ebd ab2a e93d 345d 83bd
000000c0: 5c29 cb3d 5dea 0abd 32f3 85bc 4cb8 543d
000000d0: 48c1 043e d527 063d 1aba fd3d ce5d 0abe
000000e0: 28b6 34bd f06a d53c bc93 ec3d d1b5 e2bd
000000f0: 674d 3bbd 009b 103d 48e8 35bd 661b 83bd
