models/rl_agent.pth (torch, 55765 bytes, 9 tensors)

fc1.weight f4 [64, 5]
00000000: 90e3 22bf b278 bb3e 3f26 58be feb3 b9bd
00000010: 3c77 523d 2682 613e 1fee 543e 62a9 ca3e
00000020: c667 54bc cb2c f7bd 96f8 d5be 0184 bbbe
00000030: 4845 14be 91bb a5be 261c b93e 161c 01be
00000040: 94a1 99be d873 d23d 08b8 f7bd 2403 a1be
00000050: f23b 13be f2b3 de3e b56c f9be 65b9 923e
00000060: 7eab 043e 16e0 68be 0c7f 21be 36df 97be
00000070: cb1d e53e 5102 bdbd 0884 f33e bd72 b93e
00000080: 075b f63e 0ba2 013f 37f7 34be 91e6 363e
00000090: 9bd9 8ebe 0f7e d13d dd9a e73e 816f a5be
000000a0: beae 43be e00d e1be f2f5 903e 1a62 d2be
000000b0: c455 20be e6b4 283c a71d 923e 915c 903e
000000c0: 0a0a 953d 95d4 043f 93b0 903d 894f 723d
000000d0: 37cd 8e3d d0a5 5dbe d561 0a3e db3c 263d
000000e0: fbbb 873e 2b2a 743c 96ae 503e 3ea2 86bd
000000f0: 6d1e 83be 228c 0c3e 394a 4d3e 46ed b33d
00000100: 4848 923e 67a2 37bd 0870 a23e cbed 393d
00000110: 8339 873d dcc4 803e 1814 3b3d 6b08 babe
00000120: c00b c43d 3a32 bf3e e58f b6be ace5 fe3e
00000130: 09eb 71bd 114d 7cbe 41f3 e63e c2c4 a5be
00000140: e1c7 f6be 0fc6 0c3e 3a36 503e af0e 01bd
00000150: 5505 d3bd 5605 b43e 3d1e 583c 28de 8fbe
00000160: 36df 3fbd 0bd1 853e 1367 e2be c1ec 0abd
00000170: 111b a4be 5626 7e3e 44d6 99be 24d8 93be
00000180: ff94 68be 887b c83d e8b8 503e c23b 48be
00000190: bf13 13bf 18f4 8d3e ce46 6fbe f42e 183b
000001a0: e72e f2bd b9ad 29bd e0b0 c03e 797b f9be
000001b0: 612c b5be ba57 343e 9bb2 a63e 0a57 13be
000001c0: dbf7 913e b9ab 433d c81a 9e3e da9b a93d
000001d0: 4f6a 0b3d 9e32 f83e 256c 1d3e 572f f73d
000001e0: 29d4 8abe 388e d93e c01a 12be d78c 39be
000001f0: 8547 a13e b498 173f 9e96 48be 68a1 9a3e
00000200: 5a07 b33e 651b dd3e c490 2fbe 3972 303e
00000210: eb9c 05be a8b9 d0be c267 a5bd af3e 953e
00000220: b2aa b2be 90af bb3e bd9c e7bd 0d40 d13e
00000230: ae83 febd c500 dabe cd82 a8be a224 153e
00000240: d882 00bd 5ea2 a83e e8a2 943d 812d d93e
00000250: 35dd 093e 787a 11bd e238 af3e 9e6e c1be
00000260: 5c3b a0be d6e4 9ebe 8aa4 4abe 1796 393e
00000270: 1a24 d23d 45df cc3e 0e39 98bd 0121 113e
00000280: 0ef6 db3e 506c f4bc 0ca5 be3e 3243 8abe
00000290: f09b 923e 787a 153e 3876 a73d 8046 033e
000002a0: f87a a03d da07 b1be db05 1f3f bd6e 1ebe
000002b0: baef 343e 742d c83e 8f2d 0b3e 9b09 f3be
000002c0: 664c 8dbc 5cac 94be 402c 513e c769 99be
000002d0: df1e 913d 8dc1 afbe 15a4 babe 0f67 acbe
000002e0: 44f6 ca3e d0cf f23c 689d 59bd a8db cdbd
000002f0: d891 92be fa36 90be 9546 51be dc91 b43e
00000300: caab c93e b00e 933e 52fa e5be 0498 f8be
00000310: 2e9f 65bc 5a7a 283e 1004 78be d3da 04bd
00000320: 5797 abbe 7de6 853e b9a2 45be c953 483e
00000330: 4d5d 88be 322c e33d 77ac c53e d9bc 8f3e
00000340: 9c9b 6d3e e633 2a3e acfd e03e daf8 19be
00000350: 0fc4 8c3d b2b4 803e 65b3 1b3e a4c6 adbe
00000360: 1cef a5be 28b5 063e acea 86bd 8012 4d3e
00000370: 0cf0 cebe 0be0 c23e 0d21 4e3e a9cb 74be
00000380: adb3 acbe f520 593d 0fe7 a1be f393 f43e
00000390: 6d20 7b3e 4213 e23d c99e ff3e db97 a5be
000003a0: 1fd6 3abe 87ce 9a3e 76de 9dbe 38a0 ea3e
000003b0: 41f5 2b3e b137 57be 1ffd 9abe 95b3 a6be
000003c0: 0217 b03e ae25 46bb e3a5 de3e ed3d 17be
000003d0: 6899 fc3d 98ea 50be 0d1f e93e 6902 85be
000003e0: 345b e23e 8a37 373d 8bcc cd3e f2f4 9d3e
000003f0: 42bf 523e c8bb 063e 5871 993e 7fe5 913e
-0.6362848 0.3661552 -0.2110834 -0.09067534 0.051383242 0.22022304 0.20793961 0.39582354
-0.012964195 -0.120690905 -0.4179122 -0.36624148 -0.14479554 -0.32369664 0.36154288 -0.1260837
-0.30006087 0.10276002 -0.12095648 -0.3144771 -0.14378336 0.43496662 -0.4871575 0.2865707
0.12956044 -0.22741732 -0.15771121 -0.29662484 0.44749293 -0.092289574 0.4756167 0.3622035
0.48116323 0.5063788 -0.1767243 0.17861392 -0.27900395 0.10229122 0.4523534 -0.32311633
-0.19109628 -0.43955898 0.2831264 -0.4109047 -0.15657717 0.010297036 0.28538248 0.28195623
0.072773054 0.51886874 0.07064929 0.059157882 0.069727354 -0.21645284 0.13513882 0.04058538
0.26510605 0.014902632 0.20379099 -0.06573914 -0.2560915 0.13725331 0.20047845 0.08785491
0.2857077 -0.044832613 0.31726098 0.045392793 0.06602766 0.25150192 0.04567346 -0.36334547
0.09572554 0.37343007 -0.35656658 0.497846 -0.059062038 -0.24638774 0.45107463 -0.32376677
-0.4819937 0.13747428 0.20333186 -0.031508144 -0.103037514 0.3516032 0.013190803 -0.2809918
-0.04684373 0.2613605 -0.44219264 -0.033917192 -0.320519 0.24819311 -0.30046284 -0.2887584
-0.22713087 0.09789187 0.20383036 -0.19554046 -0.57452005 0.2772529 -0.23366854 0.0023221346
-0.11825352 -0.04142544 0.37634945 -0.48727015 -0.3538542 0.1761159 0.3255814 -0.14388672
0.2850941 0.04777119 0.30879807 0.082816795 0.03403693 0.48476118 0.15373285 0.12069576
-0.2711499 0.42491317 -0.14268017 -0.18120132 0.31499878 0.5921738 -0.19588706 0.30201268
0.34966546 0.43184963 -0.17145067 0.17231072 -0.1304814 -0.40766644 -0.08076431 0.29149386
-0.34895855 0.3665738 -0.11309192 0.4086918 -0.1242746 -0.42578712 -0.32912293 0.14564756
-0.031374782 0.32936376 0.072576344 0.4241753 0.1346329 -0.035517186 0.34223086 -0.37779707
-0.31295288 -0.31033963 -0.19789329 0.18123661 0.10260792 0.4001409 -0.07432757 0.14172746
0.42961162 -0.029836804 0.37235296 -0.2700439 0.28634596 0.145975 0.08176845 0.12819862
0.078359544 -0.34576303 0.6211831 -0.15471931 0.17669573 0.39097178 0.13591598 -0.47468266
-0.017248344 -0.2903775 0.20427036 -0.29963514 0.07085966 -0.34327355 -0.3645331 -0.33672377
0.3964101 0.029640108 -0.05312863 -0.10051662 -0.28626895 -0.28166944 -0.20437081 0.35267532
0.39388877 0.28722143 -0.44917542 -0.4855348 -0.014015002 0.16452923 -0.242203 -0.03243525
-0.335139 0.2615241 -0.19300355 0.19563212 -0.26633683 0.11092414 0.38608143 0.28073767
0.23203892 0.1662136 0.43943536 -0.15036336 0.06873333 0.2513786 0.15205152 -0.33940613
-0.32408988 0.13155043 -0.06587729 0.20026588 -0.40417516 0.38061556 0.20129795 -0.23905815
-0.33730832 0.053009946 -0.31621596 0.47769126 0.24524088 0.110388294 0.4992583 -0.3234242
-0.18245743 0.30235693 -0.30833787 0.45825362 0.16792776 -0.21017338 -0.3027124 -0.32558885
0.34392554 -0.0030234861 0.43485937 -0.14769717 0.123339474 -0.2040199 0.45531502 -0.259784
0.44210207 0.0447307 0.40195116 0.3085094 0.20580772 0.1315757 0.29969287 0.28495404

fc1.bias f4 [64]
00000000: 6526 db3e 37cb 39be f418 e2be da9d 08be
00000010: d588 c63d 656c 8c3e c49d 283e 3eae 593c
00000020: 737a aabe 5b16 833e 30fb e13c 8d69 e93d
00000030: 7138 cebd 3e94 a13e 772e dfbe 2bb1 2cbd
00000040: f3af 673e da98 e2bd 6ccb 0c3a f916 abbe
00000050: 7ff4 c23e 0f2e 313e 761f d23d b262 313d
00000060: 7c27 8ebd ac2f 003e 9a5b ae3e 9666 06be
00000070: ee1e 87b9 dfd5 16bd e834 e2be a4c5 82be
00000080: 240f 473e 3052 cebe 319e 9d3e 80e0 c23c
00000090: 6fd8 663e 85b6 91be 5190 93be 1cf4 a63e
000000a0: 6b46 08bd 131a c73d 6e86 7a3d 984c f8bd
000000b0: 483b 4d3e 5c57 473e 46e0 4b3e 4235 58be
000000c0: 0137 a9be 4337 7fbe fb0f a23e acb8 bfbe
000000d0: f114 8a3c f4da 3abe a275 a53e 019b 753e
000000e0: b6ac 2b3d fe72 e73d f329 cc3e 8baf e53e
000000f0: 53c9 b9bd c8b6 73bd beb1 fcbd 03f0 c23e
0.4280273 -0.18143927 -0.44159663 -0.13341466 0.096940674 0.27426448 0.16466433 0.0132861715
-0.33296546 0.25602993 0.027585596 0.11397085 -0.10069359 0.31558412 -0.43590137 -0.042161148
0.22625713 -0.1106431 0.00053708884 -0.33415964 0.3807716 0.17302726 0.10259907 0.043307014
-0.06941125 0.12518185 0.3405426 -0.13125071 -0.0002577225 -0.036825057 -0.4418099 -0.25541413
0.1943937 -0.4029708 0.30784753 0.02378869 0.225435 -0.28459564 -0.28821042 0.32608116
-0.03327028 0.0972177 0.06116336 -0.12123984 0.20042145 0.19466919 0.19909772 -0.21114066
-0.33049777 -0.24923424 0.31652817 -0.3744558 0.016855689 -0.18247586 0.3231631 0.2398491
0.041912757 0.1130123 0.39875755 0.4486049 -0.09071603 -0.059500486 -0.12338589 0.3807374

fc2.weight f4 [64, 64]
00000000: 61f7 363d 4683 633b 3089 afbc f297 973d
00000010: b02e 473e ee96 8d3d 9503 a73d 255d 1bbe
00000020: d010 e3bc 3409 36bd 201b 94bd daa8 b93d
00000030: efe1 40bd 3582 ed3d f8fe 8a3d dac2 86bd
00000040: 05a8 cb3c 230a a93d 6438 273e 40d1 0bbb
00000050: 4fdb 793d 1444 b43d 1b6a 01be 60f3 48bc
00000060: 1c5f 82bd 1301 abbd ca82 753e ff57 d33d
00000070: 9540 003d 6dec 5dbd dc4c 20bd e60f cebd
00000080: 70b8 da3d 78fd 343d f5d4 ec3b b944 b23d
00000090: 0b9f 283d 308d c73c 12c1 ac3d 6beb 81bc
000000a0: 1b87 413e 230f 863d 5057 4cbd a016 edbb
000000b0: f71e 453e e235 71bc 1f27 f73d 0a4b 133d
000000c0: 1285 50bc e98e f23c c7a1 36bd 02ca babd
000000d0: 092d e4bd 3577 16bc 3eb0 3e3e d922 f73d
000000e0: d818 8f3d 9ae9 ab3d 673f 4d3d 5686 553e
000000f0: e741 d6bd efc3 25be 1eeb 9d3c 21dd 743d
00000100: e6b0 863c 0d24 583d fc7c 833d 6c0f 8a3d
00000110: 0d60 293e 5e96 6a3d c80f 7abd 29a6 02be
00000120: 004c debb 2cd0 063e e7ed 113d c32d d23c
00000130: cdec ca3d 38fc bf3c cc86 233d 71a9 95bb
00000140: 98b2 1bbd 2ab4 f1bd 1e8a 873c cc83 d6bd
00000150: f1e0 c43d 2d0f 893e 2e23 c4bd c371 fb3c
00000160: 5573 99bd d089 07bd a6c5 693e 1952 c03d
00000170: 989a 583d b507 8f3d 38d5 a53c 5c69 693d
00000180: 1efa 77bd fcd4 93bd 9c82 853d 7de3 aa3d
00000190: 6b71 173e 746e 4ebd d454 923d f7c9 9c3d
000001a0: 7d03 993d dae3 cb3b f330 04be c81c de3c
000001b0: 81e9 a13d bfa9 d5bd ac79 4b3d 8948 e43d
000001c0: 3283 11bd e19d bebb df0c ecbc e67b 94bc
000001d0: 1adb 0c3d 3354 83bd d8b1 5b3d bbd5 1b3e
000001e0: 5a5d db3b 7a7d 8e3c 1023 6dbd 6fdc 5bbd
000001f0: b398 d6bd fb04 69bd fa8e f7bd 9edc 5abd
00000200: 92ff ec3c 3dc1 293e aebd 893d 4648 f13d
00000210: f650 d73d 04ca 0d3c 7f10 183d 23d3 3e3e
00000220: 5c5b 903d 12c4 963d 6903 c03d f6e2 f13b
00000230: 6a0f 003d 7933 ee3d e0ad 5e3d 6c29 1b3e
00000240: 52f6 553d 8c4f 113e fcdf f0bc 8666 fabd
00000250: e5a0 73bd 65d8 3fbe 7f8b d43c 38ac 1dbc
00000260: 3e4d 973d c15e f33d e34b 833b 66c3 91bc
00000270: be23 053d 491d 413e 3429 083d 6db3 b5bd
00000280: c1fb 143d 0861 f53d e0ac 0a3e d750 92bd
00000290: 9164 56be b8c8 3cbd 3e4d 623b a56f 0cbe
000002a0: 2802 e6bc b332 213e 5aa9 383e 82de debd
000002b0: 4de8 c7bc 6674 0a3e d38c 223e e7e0 4c3d
000002c0: 3ad0 b73d 44d2 ecbd e74c 36bd c4b2 a43b
000002d0: c81f 42bd 3fe8 b43d 0a2d eebd be53 41be
000002e0: 04dc 533e d9e2 8c3e df96 003c a81a c6bd
000002f0: df61 643e 7e58 cc3d ba1a 6e3e 9ba3 823c
00000300: ac31 1fbd 1af2 53bd 0027 94bc 7859 a03d
00000310: 89ef c03d ac76 c2bd 329f cb3b e223 3dbd
00000320: bc81 243d 4fed d3bd 57de e93d 57d5 a0bb
00000330: fe6a acbd 55b1 d43d e8eb 7f3d 5149 d53d
00000340: 9865 fe3c bf8d cc3d 24c6 58bd 68e9 fbbc
00000350: c2fc a43d 51a8 1bbc 2df3 193d 9211 e93d
00000360: 2369 00be 4aee d33d 9b78 623d 3a0b 943c
00000370: 084c fdbd 1b99 cabc 3069 3e3c 4061 c4bb
00000380: 6181 aebd 7c79 d33d 5ea1 a9bd 4665 82ba
00000390: fa53 f63d f814 a1bd 30ac d43b 9e58 0ebd
000003a0: ed5b 0a3c 24ea e33c 33bc 3c3d 3cf3 5e3d
000003b0: 5818 823c d246 fc3c 197a 68bb a22b efbd
000003c0: 320c b33d d657 b73d 6c5a 37bd aef2 f5bd
000003d0: 0851 b43d 4fd3 d3bb 7746 d2bd 77a2 843d
000003e0: acdf 7b3c 7998 10bc 5a9b 12bd 8d9f 943d
000003f0: ebbf b1bc f17b 93bd 4e85 85bd ff7b dfbd
0.044669513 0.0034715696 -0.02142772 0.07402028 0.19451404 0.06913553 0.0815498 -0.1517225
-0.027717978 -0.04444237 -0.07231736 0.09065409 -0.047090467 0.11597101 0.06786913 -0.06580134
0.024860391 0.082538866 0.16330105 -0.002133444 0.061000165 0.08802047 -0.12638132 -0.012265056
-0.06365797 -0.08349814 0.23975673 0.10319518 0.03131159 -0.05418055 -0.0391358 -0.10061626
0.1067971 0.04418704 0.007227535 0.08704514 0.0411673 0.024359316 0.08435263 -0.015859326
0.18899195 0.06545856 -0.049887955 -0.007235363 0.19250093 -0.014722319 0.12068009 0.035960235
-0.012727039 0.02960916 -0.044587877 -0.09120561 -0.11141402 -0.009183695 0.18621919 0.120671935
0.069871604 0.08394165 0.050109293 0.20852026 -0.104617886 -0.16188024 0.019277152 0.059781197
0.016441774 0.052768756 0.06420323 0.06741223 0.16540547 0.057272308 -0.061050206 -0.12758698
-0.0067839622 0.13165349 0.035627272 0.025656587 0.099084474 0.023435697 0.039923474 -0.004567318
-0.038012117 -0.11801942 0.016545352 -0.10474357 0.09613217 0.2676939 -0.095770225 0.030693894
-0.07492701 -0.033090413 0.22829303 0.09390659 0.052881807 0.06983892 0.020243272 0.056985244
-0.060541265 -0.07218358 0.065190524 0.08344171 0.1478936 -0.050398305 0.07145086 0.07655709
0.074713685 0.0062222304 -0.12909298 0.027113333 0.079058655 -0.10432767 0.049676582 0.111466475
-0.03552551 -0.0058171605 -0.028814731 -0.018125486 0.03438864 -0.06412544 0.053636402 0.1521825
0.006694478 0.017393816 -0.057894766 -0.05367702 -0.10478344 -0.056889515 -0.120878175 -0.053433053
0.02893046 0.16577621 0.06725632 0.11781363 0.10513489 0.008654121 0.037125107 0.1863523
0.070486754 0.07361616 0.093756504 0.007381792 0.0312647 0.116309114 0.05436504 0.1515252
0.052236862 0.14190501 -0.02940368 -0.12226586 -0.059479613 -0.18734892 0.025945423 -0.00962358
0.0738778 0.11883307 0.004006849 -0.017793369 0.03250479 0.18858828 0.03324242 -0.088721134
0.036372904 0.11981398 0.13542509 -0.07144325 -0.209368 -0.046089858 0.0034530903 -0.13714464
-0.0280772 0.15741996 0.18033352 -0.10882284 -0.024402762 0.13520965 0.15874033 0.05001917
0.08975263 -0.115635425 -0.044506934 0.0050261933 -0.04739359 0.0883336 -0.11629684 -0.18879601
0.20689398 0.2751682 0.0078484705 -0.09673053 0.2230296 0.09977816 0.23252383 0.015947154
-0.03886573 -0.051744558 -0.018085003 0.07829565 0.09420688 -0.09495291 0.006214046 -0.0461768
0.040162787 -0.103479974 0.11419361 -0.0049082446 -0.08418845 0.10385386 0.062480837 0.104143746
0.031054303 0.099879734 -0.052923337 -0.030750945 0.08056022 -0.009500579 0.037585426 0.113803044
-0.12540106 0.103481844 0.0552908 0.01807176 -0.123680174 -0.02473121 0.011621758 -0.0059930384
-0.08520771 0.10325906 -0.082827315 -0.0009948395 0.12027736 -0.078653276 0.006490253 -0.03475248
0.008444768 0.027821608 0.04607792 0.054431185 0.015880749 0.030795489 -0.0035473166 -0.11678244
0.087425604 0.089523 -0.044763967 -0.12009178 0.08804518 -0.006464399 -0.10267346 0.064763
0.015373152 -0.008825415 -0.035792686 0.072569944 -0.021697959 -0.07201374 -0.065195665 -0.10912322

fc2.bias f4 [64]
00000000: 5f01 ff3d 1424 f83d c60e 823d d114 0bbd
00000010: 8170 94bd 0a05 b8bd 460f ba3d 7734 e4bd
00000020: cdd4 48bc 7243 973d c6d3 c7bd 83fe e7bc
00000030: 22a2 ce3d 2bb2 cebd e68c 9d3d 2fa5 c0bd
00000040: 17f6 99bd 46aa 96bd 4c36 78bd 2b95 f6bd
00000050: ccff 013e d484 8a3d 8d4e 353d 189f 0e3c
00000060: f69c aebd 011d d33c 1c7a c83d c4fa 01be
00000070: f70d b43d 37a7 6c3d b699 a2bd 013d ce3d
00000080: 38e4 5ebd 539c bbbd 035f 10bd 6739 323e
00000090: 6fb1 ee3d f43e a9bd 5463 84bc 1ba4 223d
000000a0: 1146 013e 8855 96bd 0033 e6bc d9dd 353d
000000b0: 2bf3 24bd ec52 1ebd 0184 913c 0c66 88bd
000000c0: cd98 a2bd 7550 a83b 86b5 c2bd e03e 31bc
000000d0: ca2c 46bc 4895 113e d6e7 903d 5b6b 183e
000000e0: 2b86 8bbc 51fd ee3d 4d87 aebd 4e2d 413c
000000f0: 3ebc 1c3e 0ac2 a8bd 4e8d 183d 4d13 cd3d
0.124514334 0.12116256 0.06350474 -0.0339554 -0.07248021 -0.08985336 0.090849444 -0.111428194
-0.012257767 0.07385911 -0.097571895 -0.028319603 0.10089518 -0.100925766 0.0769289 -0.09406506
-0.07517641 -0.07356696 -0.060598657 -0.1204017 0.12695235 0.06763616 0.044264365 0.008704923
-0.08526032 0.025770666 0.097889155 -0.12693316 0.08791726 0.057776656 -0.07939474 0.10070229
-0.054416865 -0.09160676 -0.03524686 0.1740471 0.116549365 -0.082639605 -0.016160645 0.039707284
0.12624384 -0.073405325 -0.02810049 0.044401024 -0.040270966 -0.0386533 0.01776314 -0.06660089
-0.07939301 0.0051365444 -0.09507279 -0.010818213 -0.0120956395 0.14217103 0.07075469 0.14884703
-0.01703175 0.1166941 -0.085219 0.011790587 0.15306184 -0.08240135 0.037244134 0.10013447

fc3.weight f4 [64, 64]
00000000: ad96 ecbd cdb3 10be 224e 643e c878 b5bd
00000010: 7f0c f43c 109d 2cbd 00e1 e9bd dd68 d4bd
00000020: 8e46 a0bc 6b6b 453e 9869 2b3d 35b5 413e
00000030: d19c 8f3d 01fa 203e 20a6 463e f837 4b3e
00000040: e739 e53d bc86 f3bd 10e9 d53c adc1 1f3e
00000050: 1f09 8a3d 0207 41be 86dd 9cbd 585d 1b3e
00000060: ec41 ee3d a1b0 873e 1fc6 f93d 43c2 a33d
00000070: a6a3 5b3e 2d41 e9bd a00a 2d3e 193d 193d
00000080: f007 05bc c119 3fbd e64a ff3d 9d0c 5c3d
00000090: 6314 6ebd c016 d1bc ce9b b7bd 2882 ffbc
000000a0: a79c fbbd 7fd7 413e 20cd 7ebd 025f cb3d
000000b0: e2bc 0b3e 85c0 01be 82c8 cb3d 8672 95bd
000000c0: b06e 3abd 0f06 a13d 8888 e43d 80c3 e8ba
000000d0: 7a50 d73d f2ba 9a3d 0c36 7b3e 7781 1abe
000000e0: 1099 ae3d 879e ae3d 8541 e73c 81f4 18bd
000000f0: 9b21 9dbd a917 8f3d cc31 253e 9575 28be
00000100: 1da3 8f3d aad9 313e 48c7 913c e214 e63d
00000110: 3f9e c53d e8c6 c3bd 424d ae3c c744 92bc
00000120: d21b 963b 7ac3 04be c43e e13d 6270 2ebe
00000130: 9b56 813a bf3c d33c fe05 55bd 20c3 cfbb
00000140: 4a9a 85bd bc37 383d 50e8 863c 917d b33c
00000150: 8831 e73d 47e3 5c3d d2ba 8c3d e585 793d
00000160: e0d3 5e3d 9d30 89bd 29ee 4fbd ffdf 19bc
00000170: 672a 10be 07c3 de3d 9aa4 df3c 48b2 74bd
00000180: 1054 b3bd cc4b 4f3d 4136 a9bd e0b8 ee3d
00000190: 329d 8b3b 9202 ac3d 1972 093e ffbc 163e
000001a0: 5d80 e7bc b4c4 383d 0444 11bd a71e 773d
000001b0: 902c 12be 059a 493e 4166 44be 0c20 6cbd
000001c0: e7dc 7cbd b236 00be 9008 cd3c 5a1a 953d
000001d0: d2db aabc 13a7 673e 4095 ccbd e1c8 473e
000001e0: fbb9 913d 48b5 f93d 06ed 6d3d cc31 f93d
000001f0: 2a06 323e 3fb4 b73d 25a1 a4bd 05ab 2b3d
00000200: 34bc 1d3e c8ce 493e 284d d5bd 3c10 0e3d
00000210: 49a8 3d3e e52a a5bc bec9 bf3b 50f3 073d
00000220: 20c1 ca3d bbcc f3bd 50a4 9dbd acd0 0d3d
00000230: 5009 b93d e0fe b93c e3f8 b0bd 96ec cc3b
00000240: 9f34 e5bd 2046 a3bb 9205 df3d b536 09be
00000250: ed1a 12be 562b 6e3d d843 ab3d ed55 7dbd
00000260: 58b7 c9bd ee93 dd3c 7b40 763d 9b27 07be
00000270: b226 77bd 21b6 963d e121 893d ee30 24be
00000280: d08f 41bd 6ed9 a8bd 7303 0abe 53eb 493e
00000290: 4fcd a83d 6462 fb3d ba80 d7bb 4571 633d
000002a0: 29ec e83b 0d16 b0bd f04e a23d b426 f83c
000002b0: 0ed1 3a3d 31e2 7b3e cd18 20be fa6c b1bd
000002c0: 5ab0 4e3c eef5 063d b4d8 40bd 0808 963c
000002d0: 77d7 083e dfa5 173e 6c58 333d e10a 5e3e
000002e0: ad95 e9bc 95ba da3d 5067 24bd 55f1 cbbd
000002f0: eee9 70bb 09fd b9bc 1990 2cbd 0f15 7e3e
00000300: 2ae4 f8bd 3271 61be 4a60 873e 46bf 10bd
00000310: 4f75 03be 0012 ba3d 54ad 7a3d 3bf2 dcbd
00000320: bb9d 7abd e16f 8a3e 5ae9 fbbd 2988 913e
00000330: 1703 61bd de4d f13d 37e4 4b3e 6427 533e
00000340: 4be4 2e3d 60af cabc 143e 843d 8e7f 9a3d
00000350: ab1d 453e 53a1 81bd da15 883d 5956 1d3e
00000360: 60f6 b9bc a1b3 113e 885f ab3d c0aa 133e
00000370: c8e7 d43d 9afd b3bd c7e8 2a3d 47a8 be3d
00000380: 78d7 733d 056d 05bd 92c3 283e 11c8 abbd
00000390: 083c 1c3e 1048 2d3d 00dc 103d 27bf dabd
000003a0: 96f2 39bd e873 c13d 08b9 8a3d 8d1a 1abd
000003b0: 0a13 133e 4580 84bd 3739 363e f863 7abd
000003c0: bf50 80bd 86ab 393e 4097 3ebb 102f 67bc
000003d0: e2b9 ce3d fa99 49bd 54eb 813d 2d63 00ba
000003e0: 998f f03d b28b 963d 2dc8 9c3c 2abb 6b3d
000003f0: f85d 3a3d 5b9d 1f3d ee18 003e 9b51 79bd
-0.115521766 -0.14131089 0.2229543 -0.08860928 0.029791115 -0.042141974 -0.114198685 -0.103715636
-0.019564893 0.19279258 0.04184875 0.18916781 0.07012332 0.15720369 0.19399309 0.19845569
0.111926846 -0.11890933 0.02611211 0.15601225 0.06740021 -0.1885033 -0.0765944 0.15172327
0.11633667 0.26501945 0.12195992 0.07996037 0.21449146 -0.113893844 0.16898584 0.037411783
-0.008119568 -0.04665542 0.124654576 0.053722966 -0.05812491 -0.025523543 -0.08965264 -0.031189993
-0.122857384 0.18929861 -0.06220734 0.09930231 0.13646272 -0.12671097 0.09950353 -0.07297234
-0.045515716 0.07862484 0.11158854 -0.0017758459 0.105133966 0.07555188 0.24532336 -0.1508845
0.08525288 0.085263304 0.028229484 -0.037342552 -0.07672425 0.06986935 0.16132277 -0.16451104
0.07013533 0.17368189 0.01779522 0.11234452 0.09649324 -0.09559423 0.021277074 -0.017855061
0.004580953 -0.12965193 0.109983 -0.17035058 0.0009867729 0.025785802 -0.052007668 -0.0063403994
-0.06523569 0.044975027 0.016468197 0.02191046 0.11288744 0.053927686 0.06871571 0.060918707
0.05440128 -0.066987254 -0.050764237 -0.009391784 -0.14078675 0.10877042 0.027300168 -0.059740335
-0.08756268 0.050609395 -0.08262301 0.11656356 0.0042606825 0.08398928 0.13422431 0.14720534
-0.02825945 0.045109466 -0.035465255 0.060331967 -0.14274812 0.1968766 -0.19179632 -0.05764775
-0.061734106 -0.12520865 0.025028497 0.07280417 -0.020856772 0.22622328 -0.09989405 0.19510223
0.07115551 0.1219278 0.05808737 0.12167701 0.17385164 0.08969926 -0.080385484 0.041911144
0.15403825 0.19707787 -0.10415107 0.03468345 0.18521227 -0.020162055 0.005852907 0.033191025
0.09900117 -0.119042836 -0.07697356 0.034622833 0.09034979 0.022704542 -0.086412214 0.006253789
-0.11191677 -0.004982725 0.10889734 -0.13399775 -0.14268084 0.058146797 0.083625495 -0.061849523
-0.09849423 0.027048077 0.060120087 -0.13198702 -0.060339637 0.07358957 0.06695915 -0.1603429
-0.04725629 -0.082445964 -0.13477878 0.19718675 0.082422845 0.12274626 -0.0065766247 0.055527944
0.0071082306 -0.08597956 0.079252124 0.030291893 0.045609526 0.24598004 -0.15634461 -0.08663364
0.012615288 0.03294938 -0.047081664 0.018314376 0.13363443 0.14809369 0.043785498 0.21683837
-0.028513754 0.10680119 -0.04013759 -0.0995814 -0.0036760527 -0.022703664 -0.04212961 0.2481272
-0.12152894 -0.22015837 0.2644065 -0.035338663 -0.12837718 0.090854645 0.061200455 -0.10788389
-0.06118558 0.27038482 -0.12300368 0.28424194 -0.054934587 0.1178243 0.19911276 0.20620495
0.042698186 -0.024741828 0.06457153 0.075438604 0.19249599 -0.06329598 0.06644793 0.1536497
-0.022700489 0.14228679 0.083678305 0.14420605 0.10395771 -0.08788605 0.0417259 0.0930944
0.05953166 -0.032574672 0.16480854 -0.08387769 0.15257275 0.042305052 0.03536606 -0.10680991
-0.045397364 0.094459355 0.06773573 -0.037622977 0.14362732 -0.06469778 0.17795263 -0.061130494
-0.06265401 0.18131837 -0.0029081851 -0.014110342 0.10094048 -0.04921911 0.063437134 -0.0004897591
0.11746139 0.073508635 0.01913842 0.05755154 0.04549977 0.038968425 0.1250951 -0.06086884

fc3.bias f4 [64]
00000000: 5b44 a03b 5451 b13d 463e 4bbc 4fef 953c
00000010: e7b5 89bc 3bea c13d 5a6b db3d 3854 133e
00000020: cd87 2b3e 0510 7f3d 28c7 323e 70fd 463d
00000030: 4985 ea3d 57c7 243e b030 c1bd aec4 8c3b
00000040: 36a9 63bd c0a6 73bd 30f7 183e 0902 a5bd
00000050: 4dfd 733d 3906 603d 930b 7f3d 6484 5abd
00000060: 966c 0e3e 17b4 01bc cb53 bf3c 0500 cb3d
00000070: c04c d3bb 50d1 b9bd 4bfd 3d3e 2a18 de3d
00000080: e0d3 dabd 4bbc 92bd f0b6 cbbd 0eee b93d
00000090: e81f a7bd 5a3b 90bd 7011 40bd 1961 c13d
000000a0: 9dae f0bd 6a40 cabd ec52 f5bd 69d2 fd3d
000000b0: aebe 86bd c49a 3d3e 2e45 883d e926 153d
000000c0: f86d 13bd a6da adbd d0f5 25bd 6c34 21bd
000000d0: 25b0 fa3c ca1b 273e dea7 db3d 16d5 d43d
000000e0: 8b44 153e 403e fa3d c311 c1bc 6cbe dfbd
000000f0: 8b02 b83d c6f3 1b3e d807 393e 6411 c9bd
0.004890961 0.0865809 -0.012404984 0.018302588 -0.01681037 0.09468504 0.10713835 0.14387596
0.16751023 0.062271137 0.17458785 0.04858154 0.114512034 0.16091667 -0.094331145 0.004295907
-0.055581294 -0.059485197 0.14938045 -0.08057029 0.05956774 0.054693434 0.062266897 -0.053348914
0.1390861 -0.007916472 0.023355385 0.09912113 -0.0064483583 -0.09073126 0.18553655 0.10844453
-0.10684943 -0.0716482 -0.09947002 0.090786085 -0.081603825 -0.070425704 -0.04689163 0.09442348
-0.11752055 -0.09875567 -0.11978707 0.12393648 -0.06579338 0.1851607 0.0665382 0.03641406
-0.035993546 -0.084889695 -0.04051763 -0.039356634 0.03060157 0.16319194 0.107253775 0.103922054
0.14576928 0.122189045 -0.02356804 -0.10924992 0.0898486 0.15229711 0.18069398 -0.0981777

fc4.weight f4 [64, 64]
00000000: e0ce a2bd 566e 913e 2d43 143e c466 e4bd
00000010: d5a6 bdbd fcdd 8dba 2df3 e63d ac16 c63c
00000020: 81c1 90bd fbb6 133d bfe8 333e 43e9 8a3d
00000030: 9a8d d6bd 56c8 153e f60b cfbd ba6e a43d
00000040: 77ab 1fbe 880c 973d e2f2 003e fca7 a9bd
00000050: b00b b53d c921 b7bd 2cfd 7e3d 78d8 efbc
00000060: 7f13 813e 4ecc 643d 8a1b 03be 34e6 463e
00000070: 6cda 9c3d bc19 f33d 43db 833d 7382 aa3d
00000080: a035 a5bc 41f5 393d 06d5 b4bd 2750 babd
00000090: fb30 f2bd 68b9 0c3d a41b 5dbd 2626 4c3d
000000a0: 892c a83c 2e49 0fbe ea50 89bd 4b36 643d
000000b0: 006e 9f3d 041d 553e 1bdb 4c3e d962 e43c
000000c0: e4bc 553d 1898 b83d fd3e d63d d03d 943d
000000d0: 0494 0cbe ca36 8f3e 2b7d ee3d e7e4 08be
000000e0: 9f30 063d 4999 13bd f9d4 613d a9a7 4e3d
000000f0: a5a3 c43c 2c2d 2a3e dca2 5b3e a478 cf3d
00000100: 8986 6c3e 755d 04bd 21b2 c8bd 77b3 833e
00000110: af00 313e 3ef2 163e ae0d c6bd e1c9 98bc
00000120: 74ad 503e efc8 073e ee9f 31bd d256 e83d
00000130: 0426 263e 9f0d 46bc 58a0 d4bc 4060 a23d
00000140: 47d0 8c3e 509b 60bc 9221 1dbe 2182 8b3d
00000150: d70c 02be e113 023e 9ef8 e9bd 6a61 a93d
00000160: 3a85 2fbe 485e 4d3e 97aa 833e ec73 04bd
00000170: e4e5 ce3d 18aa f1bc 14c8 e4bd 8310 c0bd
00000180: d8a6 a33d ec50 7c3e 690b e7bc 9f99 723e
00000190: 2661 993d c4a7 923d 0c8b 923d b76b f13d
000001a0: 39b2 da3d 0ffb 3cbc 92ed acbd 7163 7e3e
000001b0: 91d4 563e f39c 36be a028 1bbe 5157 01be
000001c0: 94aa 453d 887c 883d 20bb 5c3d 4ad3 ea3d
000001d0: 64ad 6f3e ad9b 45be 9ab8 a23d e61d 613e
000001e0: e619 98bd 4c75 813e 3162 843e 5cc2 4f3e
000001f0: dac4 163e 9cf0 e7bd e8d7 99bd 475b c7bd
00000200: 695b a2bd 192d b83d 2f8f ca3c 5e60 063e
00000210: 7ecc 263e 5d57 953d d866 e53d 2aa5 da3d
00000220: a626 2bbd 8851 79bd 84fd b1bc 6b10 abbd
00000230: ce1b fd3d 1862 d7bd 00dc 203a 7ef6 98bd
00000240: e902 5b3d aa36 873d af32 5abd c336 fe39
00000250: 9f4a 27bc 34bc d73d d8aa a13d fef7 fb3d
00000260: b406 5bbd 3e18 b53d f6e2 f8bc 6868 2e3d
00000270: 981e 98bd b0fb 963d 19ec 7fbd 5390 153d
00000280: d034 10bd 41be 973d 34bb 0f3d 4df1 02bc
00000290: 89a5 80bd b479 2abd 0685 ed3d 48cc a93d
000002a0: 5c89 b5bd b851 453d 2ea6 963d 1128 74bd
000002b0: c35c 123e 0e64 473c 4921 fabd 1a8e fdbd
000002c0: 6088 0d3c dcd3 8a3d 1e8a b4bd 78a2 dfbc
000002d0: 6d23 213e 47d6 b3bd dc28 09ba ea79 e43d
000002e0: bb80 cebc 58a6 473b e874 cdbc 3c51 e13d
000002f0: 5c0a d43d 6d06 a3bd f298 06bd d38a b33d
00000300: fa5c 87bd c728 b03c ead9 0f3d 85b0 f23c
00000310: d0b2 603c 2cec e0bd f89a d6bd a56a c03d
00000320: 1e70 1cbc c79e 09bd 3f21 c6bc efaf 32bd
00000330: 2ad1 f3bd b679 e0bc a0b9 fdbc 366a babd
00000340: 88eb ebbc 00cd 503a ce54 afbd a2f2 d63d
00000350: 0d0f dbbd a4bf f6bd cf75 c4bd f4aa 453d
00000360: ab0d 433c 0636 f63d 5a2f b3bd 3a8d cb3c
00000370: 2229 c7bd ee85 9cbd c186 f53d a0c4 ffbd
00000380: 1012 62bd d1f3 383d 3613 ddbd 7986 4dbd
00000390: a4de cf3d 0652 f6bd 8644 8abd a3c4 773b
000003a0: dced 83bd 28a0 b5bc 7a19 b8bd 0bc1 b1bd
000003b0: 7ab7 e03d 2dc5 9d3d ff42 503d a189 c43d
000003c0: 1531 5f3c 442a a63d e01d 88bb 4066 55bc
000003d0: 672d 86bd 0cdc 45bd 0cd5 b8bc da88 e5bc
000003e0: 7d2d 46bd e710 59bd c0a8 913d 4434 00bd
000003f0: d994 8cbd 98e6 67bd f8c5 87bd ea97 d73d
-0.079496145 0.28404492 0.1447875 -0.111524135 -0.09260336 -0.0010823603 0.11276851 0.024180733
-0.07068158 0.036063176 0.17569254 0.067827724 -0.10476227 0.14627203 -0.10109703 0.08028932
-0.15592752 0.07375437 0.12592652 -0.082839936 0.0884012 -0.08941991 0.062253162 -0.029278025
0.25210187 0.055858903 -0.12803474 0.19423753 0.07658848 0.11870143 0.06438305 0.083256625
-0.020167172 0.045399908 -0.088296935 -0.09097319 -0.118257485 0.034356505 -0.05398144 0.04984107
0.020529049 -0.1399276 -0.06704886 0.05571584 0.07784653 0.2081185 0.20005457 0.027879165
0.052182093 0.090133846 0.10461233 0.07238352 -0.13728338 0.27971488 0.11644968 -0.1336857
0.032761212 -0.036034856 0.055134747 0.050452862 0.024003813 0.16618794 0.21448845 0.10130432
0.23098196 -0.03231569 -0.097996004 0.25722858 0.17285417 0.14740846 -0.09670578 -0.01865095
0.20378667 0.13260244 -0.04336541 0.11344685 0.1622544 -0.012088208 -0.025955364 0.079285145
0.27502653 -0.013708904 -0.15344837 0.068119295 -0.1270021 0.12702896 -0.11424373 0.082705334
-0.17140666 0.20055497 0.25716087 -0.032337114 0.10102442 -0.029500052 -0.111709744 -0.09378149
0.07990807 0.24640244 -0.028203683 0.23691414 0.07489233 0.07160905 0.07155427 0.11788123
0.106785245 -0.011534466 -0.084437504 0.24842621 0.20979525 -0.17833309 -0.15152216 -0.12630965
0.04825838 0.066643775 0.053889394 0.114660814 0.23405987 -0.19297667 0.07945366 0.21984062
-0.07426815 0.25284803 0.25856164 0.20288986 0.1472353 -0.113251895 -0.07511884 -0.09734207
-0.07927591 0.08992977 0.024726478 0.13122699 0.16288945 0.07292054 0.112012565 0.10676034
-0.041784905 -0.06086877 -0.021727331 -0.08352741 0.12358819 -0.10516757 0.0006136298 -0.0746889
0.053469572 0.06602223 -0.053270992 0.00048487456 -0.010210662 0.10533944 0.07893914 0.1230316
-0.05347319 0.088425145 -0.03038166 0.04258004 -0.0742771 0.07372224 -0.06248102 0.03651459
-0.035206616 0.07409335 0.03509064 -0.007992101 -0.06281573 -0.04161997 0.11597638 0.08290917
-0.0886409 0.048173636 0.07355915 -0.059608523 0.14293198 0.012169851 -0.1221338 -0.12380619
0.008638471 0.0677869 -0.08815406 -0.02729915 0.1573617 -0.087811045 -0.0005232224 0.11156066
-0.025207868 0.0030464139 -0.02508016 0.11001822 0.103535384 -0.0796021 -0.032860704 0.08766713
-0.06609531 0.02150382 0.03511993 0.029625187 0.013714507 -0.10982546 -0.10478777 0.09395341
-0.009548215 -0.033598687 -0.024185775 -0.043624815 -0.11905129 -0.027401786 -0.030972302 -0.091022894
-0.028798833 0.00079651177 -0.08561097 0.10495497 -0.1069623 -0.12048271 -0.09592783 0.048258737
0.011905114 0.12022023 -0.08749266 0.024847616 -0.09724642 -0.076427326 0.11988593 -0.12488675
-0.055193007 0.045154396 -0.1079468 -0.05017707 0.10149887 -0.120273635 -0.06751351 0.0037806414
-0.064418525 -0.022171095 -0.08989234 -0.08679398 0.109724954 0.07703624 0.050845142 0.09596563
0.013622542 0.0811353 -0.004153952 -0.013024867 -0.065516286 -0.048305556 -0.022562526 -0.028019357
-0.048383225 -0.052994635 0.07112265 -0.031299844 -0.06864328 -0.056616396 -0.066295564 0.10527022

fc4.bias f4 [64]
00000000: cf7c 043e f54c 003e 2209 8abd a491 2f3d
00000010: 1706 493d 5c85 0d3e 9e45 853d d4fd 103e
00000020: e83d 90bc 58d6 ebbd a2ce 433e 3401 a8bd
00000030: 346c a23c 64ff e13d 8089 f9ba da7c f83d
00000040: 103f 5f3d df73 b93c b0b1 5ebc 2319 fb3d
00000050: 81ab 343e 11f6 273e a448 92bd de73 c13d
00000060: a45a 173e ce1d f63d d8d1 3ebd 34ed 683d
00000070: 9303 61bd 486a 413e 7886 72bd d2a1 ea3d
00000080: 05d5 373e a242 c1bd e942 d93b 5028 bd3d
00000090: 109f 0a3e 4ad5 c9bd dacc cbbd 9819 0c3d
000000a0: 492b ebbd da47 c23d 1a10 17bb 3a95 cbbd
000000b0: 8c16 edbc 6c9c 033e 7a83 8f3d d22d 0f3e
000000c0: 416e 113e 0657 efbd 41f5 cb3d 02e0 cabd
000000d0: bfb9 703c 29b1 a0bd 64cd dbbd b3c1 193e
000000e0: d5d1 f13a d0d7 c03d 371e f93d a49c a0bd
000000f0: bd3a 293e 9d10 603d f6b1 f2bd c90a 093d
0.12938236 0.12529357 -0.06740023 0.042863503 0.049078073 0.13820404 0.06507419 0.14159328
-0.017607644 -0.11515492 0.19121793 -0.082033545 0.019826986 0.1103504 -0.001903817 0.121331885
0.0545035 0.02263826 -0.013592169 0.12260654 0.17643549 0.1640246 -0.07142761 0.09445928
0.1478067 0.120174035 -0.04658684 0.05686684 -0.05493505 0.188882 -0.05921027 0.11456646
0.17952354 -0.09436537 0.0066302908 0.092362046 0.1353724 -0.09855135 -0.09951182 0.034204096
-0.11482865 0.09486361 -0.0023050369 -0.09940572 -0.028941415 0.12852639 0.07007499 0.13982323
0.14202215 -0.1168652 0.09958888 -0.09906007 0.014692723 -0.078462906 -0.107325345 0.15015297
0.0018449376 0.09416163 0.12163966 -0.07842377 0.16526313 0.054703344 -0.118503496 0.03345755

actor.weight f4 [1, 64]
00000000: 5f87 3cbe ab74 7e3e 9886 203e d089 47bd
00000010: bb0d 6b3e cc8a a63e 1ae2 e73d cecf 4ebe
00000020: a437 95bd aa6d dabd 7651 6dbe adf9 3abe
00000030: 00a9 423e 2c39 8e3e a384 92bc 1428 50be
00000040: a256 2e3e 807a 5c3e b0ab 1b3c 4b6b 613e
00000050: bbc6 75be 7e81 42be f49c d2bd a8d8 57be
00000060: 38a4 3abe 45ca 733e 0877 6cbd c1be 7e3e
00000070: 0a37 313e 7d11 55be 60a5 6abd 43e4 68be
00000080: 0966 3dbe c3b3 abbd 0b7c 9d3e 5ae0 2bbe
00000090: 2c07 7ebe 586d ddbd de0d c0bd e0bd 583e
000000a0: 8086 59bd a793 75be b248 cebd 68a3 b1bc
000000b0: 6e34 e2bd a4fc 74be 815b 50be 39e1 62be
000000c0: 5fee 41be 80c3 b4bd 1f5a 643e 20b9 8cbb
000000d0: ca46 973e b59a 98bd 8c55 e13d 1cd3 6fbe
000000e0: 0d9b be3d 2e73 8bbe f6cc 70be 641e c8bd
000000f0: 0f46 30be 2ca6 493e b308 42bc adde 463e
-0.18411015 0.24849193 0.15676343 -0.048715413 0.22954457 0.3252777 0.11322422 -0.20196459
-0.07286003 -0.10665448 -0.23175606 -0.18259306 0.19009781 0.27777994 -0.017885512 -0.20327789
0.17025235 0.21531105 0.009501383 0.22013585 -0.24001591 -0.1899471 -0.10283843 -0.21078742
-0.18226707 0.23807628 -0.057730705 0.24877454 0.17306152 -0.20807452 -0.05728662 -0.22743325
-0.18495955 -0.08383896 0.307587 -0.16784802 -0.24807423 -0.10811871 -0.09377645 0.21166182
-0.053106785 -0.23982106 -0.10072459 -0.021684363 -0.110451564 -0.239245 -0.20347406 -0.22156228
-0.18938588 -0.08826351 0.22300003 -0.0042945296 0.29546195 -0.07451383 0.11002645 -0.23420376
0.09306917 -0.27236313 -0.23515686 -0.097714216 -0.17214225 0.19692296 -0.011842894 0.19420882
